7767517
35 33
pnnx.Input               in0                      0 1 0 #0=(1,3,48,168)f32
nn.Conv2d                conv2d_0                 1 1 0 1 bias=True dilation=(1,1) groups=1 in_channels=3 kernel_size=(5,5) out_channels=8 padding=(0,0) padding_mode=zeros stride=(1,1) @bias=(8)f32 @weight=(8,3,5,5)f32 $input=0 #0=(1,3,48,168)f32 #1=(1,8,44,164)f32
F.relu                   F.relu_3                 1 1 1 2 $input=1 #1=(1,8,44,164)f32 #2=(1,8,44,164)f32
nn.Conv2d                conv2d_1                 1 1 2 3 bias=True dilation=(1,1) groups=1 in_channels=8 kernel_size=(3,3) out_channels=8 padding=(1,1) padding_mode=zeros stride=(1,1) @bias=(8)f32 @weight=(8,8,3,3)f32 $input=2 #2=(1,8,44,164)f32 #3=(1,8,44,164)f32
F.relu                   F.relu_4                 1 1 3 4 $input=3 #3=(1,8,44,164)f32 #4=(1,8,44,164)f32
nn.Conv2d                conv2d_2                 1 1 4 5 bias=True dilation=(1,1) groups=1 in_channels=8 kernel_size=(3,3) out_channels=16 padding=(1,1) padding_mode=zeros stride=(1,1) @bias=(16)f32 @weight=(16,8,3,3)f32 $input=4 #4=(1,8,44,164)f32 #5=(1,16,44,164)f32
F.relu                   F.relu_5                 1 1 5 6 $input=5 #5=(1,16,44,164)f32 #6=(1,16,44,164)f32
nn.Conv2d                conv2d_3                 1 1 6 7 bias=True dilation=(1,1) groups=1 in_channels=16 kernel_size=(3,3) out_channels=16 padding=(1,1) padding_mode=zeros stride=(1,1) @bias=(16)f32 @weight=(16,16,3,3)f32 $input=6 #6=(1,16,44,164)f32 #7=(1,16,44,164)f32
F.relu                   F.relu_6                 1 1 7 8 $input=7 #7=(1,16,44,164)f32 #8=(1,16,44,164)f32
F.max_pool2d             F.max_pool2d_15          1 1 8 9 ceil_mode=True dilation=(1,1) kernel_size=(3,3) padding=(0,0) return_indices=False stride=(2,2) $input=8 #8=(1,16,44,164)f32 #9=(1,16,22,82)f32
nn.Conv2d                conv2d_4                 1 1 9 10 bias=True dilation=(1,1) groups=1 in_channels=16 kernel_size=(3,3) out_channels=32 padding=(1,1) padding_mode=zeros stride=(1,1) @bias=(32)f32 @weight=(32,16,3,3)f32 $input=9 #9=(1,16,22,82)f32 #10=(1,32,22,82)f32
F.relu                   F.relu_7                 1 1 10 11 $input=10 #10=(1,32,22,82)f32 #11=(1,32,22,82)f32
nn.Conv2d                conv2d_5                 1 1 11 12 bias=True dilation=(1,1) groups=1 in_channels=32 kernel_size=(3,3) out_channels=32 padding=(1,1) padding_mode=zeros stride=(1,1) @bias=(32)f32 @weight=(32,32,3,3)f32 $input=11 #11=(1,32,22,82)f32 #12=(1,32,22,82)f32
F.relu                   F.relu_8                 1 1 12 13 $input=12 #12=(1,32,22,82)f32 #13=(1,32,22,82)f32
F.max_pool2d             F.max_pool2d_16          1 1 13 14 ceil_mode=True dilation=(1,1) kernel_size=(3,3) padding=(0,0) return_indices=False stride=(2,2) $input=13 #13=(1,32,22,82)f32 #14=(1,32,11,41)f32
nn.Conv2d                conv2d_6                 1 1 14 15 bias=True dilation=(1,1) groups=1 in_channels=32 kernel_size=(3,3) out_channels=48 padding=(1,1) padding_mode=zeros stride=(1,1) @bias=(48)f32 @weight=(48,32,3,3)f32 $input=14 #14=(1,32,11,41)f32 #15=(1,48,11,41)f32
F.relu                   F.relu_9                 1 1 15 16 $input=15 #15=(1,48,11,41)f32 #16=(1,48,11,41)f32
nn.Conv2d                conv2d_7                 1 1 16 17 bias=True dilation=(1,1) groups=1 in_channels=48 kernel_size=(3,3) out_channels=48 padding=(1,1) padding_mode=zeros stride=(1,1) @bias=(48)f32 @weight=(48,48,3,3)f32 $input=16 #16=(1,48,11,41)f32 #17=(1,48,11,41)f32
F.relu                   F.relu_10                1 1 17 18 $input=17 #17=(1,48,11,41)f32 #18=(1,48,11,41)f32
F.max_pool2d             F.max_pool2d_17          1 1 18 19 ceil_mode=True dilation=(1,1) kernel_size=(3,3) padding=(0,0) return_indices=False stride=(2,2) $input=18 #18=(1,48,11,41)f32 #19=(1,48,5,20)f32
nn.Conv2d                conv2d_8                 1 1 19 20 bias=True dilation=(1,1) groups=1 in_channels=48 kernel_size=(3,3) out_channels=64 padding=(1,1) padding_mode=zeros stride=(1,1) @bias=(64)f32 @weight=(64,48,3,3)f32 $input=19 #19=(1,48,5,20)f32 #20=(1,64,5,20)f32
F.relu                   F.relu_11                1 1 20 21 $input=20 #20=(1,64,5,20)f32 #21=(1,64,5,20)f32
nn.Conv2d                conv2d_9                 1 1 21 22 bias=True dilation=(1,1) groups=1 in_channels=64 kernel_size=(3,3) out_channels=128 padding=(1,1) padding_mode=zeros stride=(1,1) @bias=(128)f32 @weight=(128,64,3,3)f32 $input=21 #21=(1,64,5,20)f32 #22=(1,128,5,20)f32
F.relu                   F.relu_12                1 1 22 23 $input=22 #22=(1,128,5,20)f32 #23=(1,128,5,20)f32
nn.Conv2d                conv2d_10                1 1 23 24 bias=True dilation=(1,1) groups=1 in_channels=128 kernel_size=(3,3) out_channels=12 padding=(0,0) padding_mode=zeros stride=(2,2) @bias=(12)f32 @weight=(12,128,3,3)f32 $input=23 #23=(1,128,5,20)f32 #24=(1,12,2,9)f32
F.relu                   F.relu_13                1 1 24 25 $input=24 #24=(1,12,2,9)f32 #25=(1,12,2,9)f32
nn.Conv2d                conv2d_11                1 1 25 26 bias=True dilation=(1,1) groups=1 in_channels=12 kernel_size=(1,1) out_channels=5 padding=(0,0) padding_mode=zeros stride=(1,1) @bias=(5)f32 @weight=(5,12,1,1)f32 $input=25 #25=(1,12,2,9)f32 #26=(1,5,2,9)f32
F.adaptive_avg_pool2d    F.adaptive_avg_pool2d_14 1 1 26 27 output_size=(1,1) $input=26 #26=(1,5,2,9)f32 #27=(1,5,1,1)f32
torch.flatten            torch.flatten_1          1 1 27 28 end_dim=-1 start_dim=1 $input=27 #27=(1,5,1,1)f32 #28=(1,5)f32
F.max_pool2d             F.max_pool2d_18          1 1 23 29 ceil_mode=False dilation=(1,1) kernel_size=(5,2) padding=(0,1) return_indices=False stride=(1,1) $input=23 #23=(1,128,5,20)f32 #29=(1,128,1,21)f32
nn.Conv2d                conv2d_12                1 1 29 30 bias=True dilation=(1,1) groups=1 in_channels=128 kernel_size=(1,1) out_channels=78 padding=(0,0) padding_mode=zeros stride=(1,1) @bias=(78)f32 @weight=(78,128,1,1)f32 $input=29 #29=(1,128,1,21)f32 #30=(1,78,1,21)f32
torch.squeeze            torch.squeeze_2          1 1 30 31 dim=2 $input=30 #30=(1,78,1,21)f32 #31=(1,78,21)f32
Tensor.permute           Tensor.permute_0         1 1 31 32 dims=(0,2,1) $input=31 #31=(1,78,21)f32 #32=(1,21,78)f32
pnnx.Output              out0                     1 0 32 #32=(1,21,78)f32
pnnx.Output              out1                     1 0 28 #28=(1,5)f32
