7767517
262 301
pnnx.Input               in0                      0 1 0 #0=(1,3,640,640)f32
nn.Conv2d                conv2d_0                 1 1 0 1 bias=True dilation=(1,1) groups=1 in_channels=3 kernel_size=(3,3) out_channels=16 padding=(1,1) padding_mode=zeros stride=(2,2) @bias=(16)f32 @weight=(16,3,3,3)f32 $input=0 #0=(1,3,640,640)f32 #1=(1,16,320,320)f32
F.silu                   silu_0                   1 1 1 2 $input=1 #1=(1,16,320,320)f32 #2=(1,16,320,320)f32
nn.Conv2d                conv2d_1                 1 1 2 3 bias=True dilation=(1,1) groups=1 in_channels=16 kernel_size=(1,1) out_channels=8 padding=(0,0) padding_mode=zeros stride=(1,1) @bias=(8)f32 @weight=(8,16,1,1)f32 $input=2 #2=(1,16,320,320)f32 #3=(1,8,320,320)f32
F.silu                   silu_1                   1 1 3 4 $input=3 #3=(1,8,320,320)f32 #4=(1,8,320,320)f32
nn.Conv2d                conv2d_2                 1 1 4 5 bias=True dilation=(1,1) groups=1 in_channels=8 kernel_size=(3,3) out_channels=16 padding=(1,1) padding_mode=zeros stride=(2,2) @bias=(16)f32 @weight=(16,8,3,3)f32 $input=4 #4=(1,8,320,320)f32 #5=(1,16,160,160)f32
F.silu                   silu_2                   1 1 5 6 $input=5 #5=(1,16,160,160)f32 #6=(1,16,160,160)f32
F.max_pool2d             F.max_pool2d_219         1 1 2 7 ceil_mode=True dilation=(1,1) kernel_size=(2,2) padding=(0,0) return_indices=False stride=(2,2) $input=2 #2=(1,16,320,320)f32 #7=(1,16,160,160)f32
torch.cat                torch.cat_0              2 1 6 7 8 dim=1 #6=(1,16,160,160)f32 #7=(1,16,160,160)f32 #8=(1,32,160,160)f32
nn.Conv2d                conv2d_3                 1 1 8 9 bias=True dilation=(1,1) groups=1 in_channels=32 kernel_size=(1,1) out_channels=16 padding=(0,0) padding_mode=zeros stride=(1,1) @bias=(16)f32 @weight=(16,32,1,1)f32 $input=8 #8=(1,32,160,160)f32 #9=(1,16,160,160)f32
F.silu                   silu_3                   1 1 9 10 $input=9 #9=(1,16,160,160)f32 #10=(1,16,160,160)f32
nn.Conv2d                conv2d_4                 1 1 10 11 bias=True dilation=(1,1) groups=16 in_channels=16 kernel_size=(3,3) out_channels=16 padding=(1,1) padding_mode=zeros stride=(2,2) @bias=(16)f32 @weight=(16,1,3,3)f32 $input=10 #10=(1,16,160,160)f32 #11=(1,16,80,80)f32
nn.Conv2d                conv2d_5                 1 1 11 12 bias=True dilation=(1,1) groups=1 in_channels=16 kernel_size=(1,1) out_channels=32 padding=(0,0) padding_mode=zeros stride=(1,1) @bias=(32)f32 @weight=(32,16,1,1)f32 $input=11 #11=(1,16,80,80)f32 #12=(1,32,80,80)f32
F.silu                   silu_4                   1 1 12 13 $input=12 #12=(1,32,80,80)f32 #13=(1,32,80,80)f32
nn.Conv2d                conv2d_6                 1 1 10 14 bias=True dilation=(1,1) groups=1 in_channels=16 kernel_size=(1,1) out_channels=32 padding=(0,0) padding_mode=zeros stride=(1,1) @bias=(32)f32 @weight=(32,16,1,1)f32 $input=10 #10=(1,16,160,160)f32 #14=(1,32,160,160)f32
F.silu                   silu_5                   1 1 14 15 $input=14 #14=(1,32,160,160)f32 #15=(1,32,160,160)f32
nn.Conv2d                conv2d_7                 1 1 15 16 bias=True dilation=(1,1) groups=32 in_channels=32 kernel_size=(3,3) out_channels=32 padding=(1,1) padding_mode=zeros stride=(2,2) @bias=(32)f32 @weight=(32,1,3,3)f32 $input=15 #15=(1,32,160,160)f32 #16=(1,32,80,80)f32
nn.Conv2d                conv2d_8                 1 1 16 17 bias=True dilation=(1,1) groups=1 in_channels=32 kernel_size=(1,1) out_channels=32 padding=(0,0) padding_mode=zeros stride=(1,1) @bias=(32)f32 @weight=(32,32,1,1)f32 $input=16 #16=(1,32,80,80)f32 #17=(1,32,80,80)f32
F.silu                   silu_6                   1 1 17 18 $input=17 #17=(1,32,80,80)f32 #18=(1,32,80,80)f32
torch.cat                torch.cat_1              2 1 13 18 19 dim=1 #13=(1,32,80,80)f32 #18=(1,32,80,80)f32 #19=(1,64,80,80)f32
nn.ChannelShuffle        channelshuffle_0         1 1 19 20 groups=2 $input=19 #19=(1,64,80,80)f32 #20=(1,64,80,80)f32
torch.tensor_split       Tensor.slice_89          1 2 20 21 22 dim=1 indices=(32) #20=(1,64,80,80)f32 #21=(1,32,80,80)f32 #22=(1,32,80,80)f32
nn.Conv2d                conv2d_9                 1 1 22 23 bias=True dilation=(1,1) groups=1 in_channels=32 kernel_size=(1,1) out_channels=32 padding=(0,0) padding_mode=zeros stride=(1,1) @bias=(32)f32 @weight=(32,32,1,1)f32 $input=22 #22=(1,32,80,80)f32 #23=(1,32,80,80)f32
F.silu                   silu_7                   1 1 23 24 $input=23 #23=(1,32,80,80)f32 #24=(1,32,80,80)f32
nn.Conv2d                conv2d_10                1 1 24 25 bias=True dilation=(1,1) groups=32 in_channels=32 kernel_size=(3,3) out_channels=32 padding=(1,1) padding_mode=zeros stride=(1,1) @bias=(32)f32 @weight=(32,1,3,3)f32 $input=24 #24=(1,32,80,80)f32 #25=(1,32,80,80)f32
nn.Conv2d                conv2d_11                1 1 25 26 bias=True dilation=(1,1) groups=1 in_channels=32 kernel_size=(1,1) out_channels=32 padding=(0,0) padding_mode=zeros stride=(1,1) @bias=(32)f32 @weight=(32,32,1,1)f32 $input=25 #25=(1,32,80,80)f32 #26=(1,32,80,80)f32
F.silu                   silu_8                   1 1 26 27 $input=26 #26=(1,32,80,80)f32 #27=(1,32,80,80)f32
torch.cat                torch.cat_2              2 1 21 27 28 dim=1 #21=(1,32,80,80)f32 #27=(1,32,80,80)f32 #28=(1,64,80,80)f32
nn.ChannelShuffle        channelshuffle_1         1 1 28 29 groups=2 $input=28 #28=(1,64,80,80)f32 #29=(1,64,80,80)f32
torch.tensor_split       Tensor.slice_91          1 2 29 30 31 dim=1 indices=(32) #29=(1,64,80,80)f32 #30=(1,32,80,80)f32 #31=(1,32,80,80)f32
nn.Conv2d                conv2d_12                1 1 31 32 bias=True dilation=(1,1) groups=1 in_channels=32 kernel_size=(1,1) out_channels=32 padding=(0,0) padding_mode=zeros stride=(1,1) @bias=(32)f32 @weight=(32,32,1,1)f32 $input=31 #31=(1,32,80,80)f32 #32=(1,32,80,80)f32
F.silu                   silu_9                   1 1 32 33 $input=32 #32=(1,32,80,80)f32 #33=(1,32,80,80)f32
nn.Conv2d                conv2d_13                1 1 33 34 bias=True dilation=(1,1) groups=32 in_channels=32 kernel_size=(3,3) out_channels=32 padding=(1,1) padding_mode=zeros stride=(1,1) @bias=(32)f32 @weight=(32,1,3,3)f32 $input=33 #33=(1,32,80,80)f32 #34=(1,32,80,80)f32
nn.Conv2d                conv2d_14                1 1 34 35 bias=True dilation=(1,1) groups=1 in_channels=32 kernel_size=(1,1) out_channels=32 padding=(0,0) padding_mode=zeros stride=(1,1) @bias=(32)f32 @weight=(32,32,1,1)f32 $input=34 #34=(1,32,80,80)f32 #35=(1,32,80,80)f32
F.silu                   silu_10                  1 1 35 36 $input=35 #35=(1,32,80,80)f32 #36=(1,32,80,80)f32
torch.cat                torch.cat_3              2 1 30 36 37 dim=1 #30=(1,32,80,80)f32 #36=(1,32,80,80)f32 #37=(1,64,80,80)f32
nn.ChannelShuffle        channelshuffle_2         1 1 37 38 groups=2 $input=37 #37=(1,64,80,80)f32 #38=(1,64,80,80)f32
torch.tensor_split       Tensor.slice_93          1 2 38 39 40 dim=1 indices=(32) #38=(1,64,80,80)f32 #39=(1,32,80,80)f32 #40=(1,32,80,80)f32
nn.Conv2d                conv2d_15                1 1 40 41 bias=True dilation=(1,1) groups=1 in_channels=32 kernel_size=(1,1) out_channels=32 padding=(0,0) padding_mode=zeros stride=(1,1) @bias=(32)f32 @weight=(32,32,1,1)f32 $input=40 #40=(1,32,80,80)f32 #41=(1,32,80,80)f32
F.silu                   silu_11                  1 1 41 42 $input=41 #41=(1,32,80,80)f32 #42=(1,32,80,80)f32
nn.Conv2d                conv2d_16                1 1 42 43 bias=True dilation=(1,1) groups=32 in_channels=32 kernel_size=(3,3) out_channels=32 padding=(1,1) padding_mode=zeros stride=(1,1) @bias=(32)f32 @weight=(32,1,3,3)f32 $input=42 #42=(1,32,80,80)f32 #43=(1,32,80,80)f32
nn.Conv2d                conv2d_17                1 1 43 44 bias=True dilation=(1,1) groups=1 in_channels=32 kernel_size=(1,1) out_channels=32 padding=(0,0) padding_mode=zeros stride=(1,1) @bias=(32)f32 @weight=(32,32,1,1)f32 $input=43 #43=(1,32,80,80)f32 #44=(1,32,80,80)f32
F.silu                   silu_12                  1 1 44 45 $input=44 #44=(1,32,80,80)f32 #45=(1,32,80,80)f32
torch.cat                torch.cat_4              2 1 39 45 46 dim=1 #39=(1,32,80,80)f32 #45=(1,32,80,80)f32 #46=(1,64,80,80)f32
nn.ChannelShuffle        channelshuffle_3         1 1 46 47 groups=2 $input=46 #46=(1,64,80,80)f32 #47=(1,64,80,80)f32
nn.Conv2d                conv2d_18                1 1 47 48 bias=True dilation=(1,1) groups=64 in_channels=64 kernel_size=(3,3) out_channels=64 padding=(1,1) padding_mode=zeros stride=(2,2) @bias=(64)f32 @weight=(64,1,3,3)f32 $input=47 #47=(1,64,80,80)f32 #48=(1,64,40,40)f32
nn.Conv2d                conv2d_19                1 1 48 49 bias=True dilation=(1,1) groups=1 in_channels=64 kernel_size=(1,1) out_channels=64 padding=(0,0) padding_mode=zeros stride=(1,1) @bias=(64)f32 @weight=(64,64,1,1)f32 $input=48 #48=(1,64,40,40)f32 #49=(1,64,40,40)f32
F.silu                   silu_13                  1 1 49 50 $input=49 #49=(1,64,40,40)f32 #50=(1,64,40,40)f32
nn.Conv2d                conv2d_20                1 1 47 51 bias=True dilation=(1,1) groups=1 in_channels=64 kernel_size=(1,1) out_channels=64 padding=(0,0) padding_mode=zeros stride=(1,1) @bias=(64)f32 @weight=(64,64,1,1)f32 $input=47 #47=(1,64,80,80)f32 #51=(1,64,80,80)f32
F.silu                   silu_14                  1 1 51 52 $input=51 #51=(1,64,80,80)f32 #52=(1,64,80,80)f32
nn.Conv2d                conv2d_21                1 1 52 53 bias=True dilation=(1,1) groups=64 in_channels=64 kernel_size=(3,3) out_channels=64 padding=(1,1) padding_mode=zeros stride=(2,2) @bias=(64)f32 @weight=(64,1,3,3)f32 $input=52 #52=(1,64,80,80)f32 #53=(1,64,40,40)f32
nn.Conv2d                conv2d_22                1 1 53 54 bias=True dilation=(1,1) groups=1 in_channels=64 kernel_size=(1,1) out_channels=64 padding=(0,0) padding_mode=zeros stride=(1,1) @bias=(64)f32 @weight=(64,64,1,1)f32 $input=53 #53=(1,64,40,40)f32 #54=(1,64,40,40)f32
F.silu                   silu_15                  1 1 54 55 $input=54 #54=(1,64,40,40)f32 #55=(1,64,40,40)f32
torch.cat                torch.cat_5              2 1 50 55 56 dim=1 #50=(1,64,40,40)f32 #55=(1,64,40,40)f32 #56=(1,128,40,40)f32
nn.ChannelShuffle        channelshuffle_4         1 1 56 57 groups=2 $input=56 #56=(1,128,40,40)f32 #57=(1,128,40,40)f32
torch.tensor_split       Tensor.slice_95          1 2 57 58 59 dim=1 indices=(64) #57=(1,128,40,40)f32 #58=(1,64,40,40)f32 #59=(1,64,40,40)f32
nn.Conv2d                conv2d_23                1 1 59 60 bias=True dilation=(1,1) groups=1 in_channels=64 kernel_size=(1,1) out_channels=64 padding=(0,0) padding_mode=zeros stride=(1,1) @bias=(64)f32 @weight=(64,64,1,1)f32 $input=59 #59=(1,64,40,40)f32 #60=(1,64,40,40)f32
F.silu                   silu_16                  1 1 60 61 $input=60 #60=(1,64,40,40)f32 #61=(1,64,40,40)f32
nn.Conv2d                conv2d_24                1 1 61 62 bias=True dilation=(1,1) groups=64 in_channels=64 kernel_size=(3,3) out_channels=64 padding=(1,1) padding_mode=zeros stride=(1,1) @bias=(64)f32 @weight=(64,1,3,3)f32 $input=61 #61=(1,64,40,40)f32 #62=(1,64,40,40)f32
nn.Conv2d                conv2d_25                1 1 62 63 bias=True dilation=(1,1) groups=1 in_channels=64 kernel_size=(1,1) out_channels=64 padding=(0,0) padding_mode=zeros stride=(1,1) @bias=(64)f32 @weight=(64,64,1,1)f32 $input=62 #62=(1,64,40,40)f32 #63=(1,64,40,40)f32
F.silu                   silu_17                  1 1 63 64 $input=63 #63=(1,64,40,40)f32 #64=(1,64,40,40)f32
torch.cat                torch.cat_6              2 1 58 64 65 dim=1 #58=(1,64,40,40)f32 #64=(1,64,40,40)f32 #65=(1,128,40,40)f32
nn.ChannelShuffle        channelshuffle_5         1 1 65 66 groups=2 $input=65 #65=(1,128,40,40)f32 #66=(1,128,40,40)f32
torch.tensor_split       Tensor.slice_97          1 2 66 67 68 dim=1 indices=(64) #66=(1,128,40,40)f32 #67=(1,64,40,40)f32 #68=(1,64,40,40)f32
nn.Conv2d                conv2d_26                1 1 68 69 bias=True dilation=(1,1) groups=1 in_channels=64 kernel_size=(1,1) out_channels=64 padding=(0,0) padding_mode=zeros stride=(1,1) @bias=(64)f32 @weight=(64,64,1,1)f32 $input=68 #68=(1,64,40,40)f32 #69=(1,64,40,40)f32
F.silu                   silu_18                  1 1 69 70 $input=69 #69=(1,64,40,40)f32 #70=(1,64,40,40)f32
nn.Conv2d                conv2d_27                1 1 70 71 bias=True dilation=(1,1) groups=64 in_channels=64 kernel_size=(3,3) out_channels=64 padding=(1,1) padding_mode=zeros stride=(1,1) @bias=(64)f32 @weight=(64,1,3,3)f32 $input=70 #70=(1,64,40,40)f32 #71=(1,64,40,40)f32
nn.Conv2d                conv2d_28                1 1 71 72 bias=True dilation=(1,1) groups=1 in_channels=64 kernel_size=(1,1) out_channels=64 padding=(0,0) padding_mode=zeros stride=(1,1) @bias=(64)f32 @weight=(64,64,1,1)f32 $input=71 #71=(1,64,40,40)f32 #72=(1,64,40,40)f32
F.silu                   silu_19                  1 1 72 73 $input=72 #72=(1,64,40,40)f32 #73=(1,64,40,40)f32
torch.cat                torch.cat_7              2 1 67 73 74 dim=1 #67=(1,64,40,40)f32 #73=(1,64,40,40)f32 #74=(1,128,40,40)f32
nn.ChannelShuffle        channelshuffle_6         1 1 74 75 groups=2 $input=74 #74=(1,128,40,40)f32 #75=(1,128,40,40)f32
torch.tensor_split       Tensor.slice_99          1 2 75 76 77 dim=1 indices=(64) #75=(1,128,40,40)f32 #76=(1,64,40,40)f32 #77=(1,64,40,40)f32
nn.Conv2d                conv2d_29                1 1 77 78 bias=True dilation=(1,1) groups=1 in_channels=64 kernel_size=(1,1) out_channels=64 padding=(0,0) padding_mode=zeros stride=(1,1) @bias=(64)f32 @weight=(64,64,1,1)f32 $input=77 #77=(1,64,40,40)f32 #78=(1,64,40,40)f32
F.silu                   silu_20                  1 1 78 79 $input=78 #78=(1,64,40,40)f32 #79=(1,64,40,40)f32
nn.Conv2d                conv2d_30                1 1 79 80 bias=True dilation=(1,1) groups=64 in_channels=64 kernel_size=(3,3) out_channels=64 padding=(1,1) padding_mode=zeros stride=(1,1) @bias=(64)f32 @weight=(64,1,3,3)f32 $input=79 #79=(1,64,40,40)f32 #80=(1,64,40,40)f32
nn.Conv2d                conv2d_31                1 1 80 81 bias=True dilation=(1,1) groups=1 in_channels=64 kernel_size=(1,1) out_channels=64 padding=(0,0) padding_mode=zeros stride=(1,1) @bias=(64)f32 @weight=(64,64,1,1)f32 $input=80 #80=(1,64,40,40)f32 #81=(1,64,40,40)f32
F.silu                   silu_21                  1 1 81 82 $input=81 #81=(1,64,40,40)f32 #82=(1,64,40,40)f32
torch.cat                torch.cat_8              2 1 76 82 83 dim=1 #76=(1,64,40,40)f32 #82=(1,64,40,40)f32 #83=(1,128,40,40)f32
nn.ChannelShuffle        channelshuffle_7         1 1 83 84 groups=2 $input=83 #83=(1,128,40,40)f32 #84=(1,128,40,40)f32
torch.tensor_split       Tensor.slice_101         1 2 84 85 86 dim=1 indices=(64) #84=(1,128,40,40)f32 #85=(1,64,40,40)f32 #86=(1,64,40,40)f32
nn.Conv2d                conv2d_32                1 1 86 87 bias=True dilation=(1,1) groups=1 in_channels=64 kernel_size=(1,1) out_channels=64 padding=(0,0) padding_mode=zeros stride=(1,1) @bias=(64)f32 @weight=(64,64,1,1)f32 $input=86 #86=(1,64,40,40)f32 #87=(1,64,40,40)f32
F.silu                   silu_22                  1 1 87 88 $input=87 #87=(1,64,40,40)f32 #88=(1,64,40,40)f32
nn.Conv2d                conv2d_33                1 1 88 89 bias=True dilation=(1,1) groups=64 in_channels=64 kernel_size=(3,3) out_channels=64 padding=(1,1) padding_mode=zeros stride=(1,1) @bias=(64)f32 @weight=(64,1,3,3)f32 $input=88 #88=(1,64,40,40)f32 #89=(1,64,40,40)f32
nn.Conv2d                conv2d_34                1 1 89 90 bias=True dilation=(1,1) groups=1 in_channels=64 kernel_size=(1,1) out_channels=64 padding=(0,0) padding_mode=zeros stride=(1,1) @bias=(64)f32 @weight=(64,64,1,1)f32 $input=89 #89=(1,64,40,40)f32 #90=(1,64,40,40)f32
F.silu                   silu_23                  1 1 90 91 $input=90 #90=(1,64,40,40)f32 #91=(1,64,40,40)f32
torch.cat                torch.cat_9              2 1 85 91 92 dim=1 #85=(1,64,40,40)f32 #91=(1,64,40,40)f32 #92=(1,128,40,40)f32
nn.ChannelShuffle        channelshuffle_8         1 1 92 93 groups=2 $input=92 #92=(1,128,40,40)f32 #93=(1,128,40,40)f32
torch.tensor_split       Tensor.slice_103         1 2 93 94 95 dim=1 indices=(64) #93=(1,128,40,40)f32 #94=(1,64,40,40)f32 #95=(1,64,40,40)f32
nn.Conv2d                conv2d_35                1 1 95 96 bias=True dilation=(1,1) groups=1 in_channels=64 kernel_size=(1,1) out_channels=64 padding=(0,0) padding_mode=zeros stride=(1,1) @bias=(64)f32 @weight=(64,64,1,1)f32 $input=95 #95=(1,64,40,40)f32 #96=(1,64,40,40)f32
F.silu                   silu_24                  1 1 96 97 $input=96 #96=(1,64,40,40)f32 #97=(1,64,40,40)f32
nn.Conv2d                conv2d_36                1 1 97 98 bias=True dilation=(1,1) groups=64 in_channels=64 kernel_size=(3,3) out_channels=64 padding=(1,1) padding_mode=zeros stride=(1,1) @bias=(64)f32 @weight=(64,1,3,3)f32 $input=97 #97=(1,64,40,40)f32 #98=(1,64,40,40)f32
nn.Conv2d                conv2d_37                1 1 98 99 bias=True dilation=(1,1) groups=1 in_channels=64 kernel_size=(1,1) out_channels=64 padding=(0,0) padding_mode=zeros stride=(1,1) @bias=(64)f32 @weight=(64,64,1,1)f32 $input=98 #98=(1,64,40,40)f32 #99=(1,64,40,40)f32
F.silu                   silu_25                  1 1 99 100 $input=99 #99=(1,64,40,40)f32 #100=(1,64,40,40)f32
torch.cat                torch.cat_10             2 1 94 100 101 dim=1 #94=(1,64,40,40)f32 #100=(1,64,40,40)f32 #101=(1,128,40,40)f32
nn.ChannelShuffle        channelshuffle_9         1 1 101 102 groups=2 $input=101 #101=(1,128,40,40)f32 #102=(1,128,40,40)f32
torch.tensor_split       Tensor.slice_105         1 2 102 103 104 dim=1 indices=(64) #102=(1,128,40,40)f32 #103=(1,64,40,40)f32 #104=(1,64,40,40)f32
nn.Conv2d                conv2d_38                1 1 104 105 bias=True dilation=(1,1) groups=1 in_channels=64 kernel_size=(1,1) out_channels=64 padding=(0,0) padding_mode=zeros stride=(1,1) @bias=(64)f32 @weight=(64,64,1,1)f32 $input=104 #104=(1,64,40,40)f32 #105=(1,64,40,40)f32
F.silu                   silu_26                  1 1 105 106 $input=105 #105=(1,64,40,40)f32 #106=(1,64,40,40)f32
nn.Conv2d                conv2d_39                1 1 106 107 bias=True dilation=(1,1) groups=64 in_channels=64 kernel_size=(3,3) out_channels=64 padding=(1,1) padding_mode=zeros stride=(1,1) @bias=(64)f32 @weight=(64,1,3,3)f32 $input=106 #106=(1,64,40,40)f32 #107=(1,64,40,40)f32
nn.Conv2d                conv2d_40                1 1 107 108 bias=True dilation=(1,1) groups=1 in_channels=64 kernel_size=(1,1) out_channels=64 padding=(0,0) padding_mode=zeros stride=(1,1) @bias=(64)f32 @weight=(64,64,1,1)f32 $input=107 #107=(1,64,40,40)f32 #108=(1,64,40,40)f32
F.silu                   silu_27                  1 1 108 109 $input=108 #108=(1,64,40,40)f32 #109=(1,64,40,40)f32
torch.cat                torch.cat_11             2 1 103 109 110 dim=1 #103=(1,64,40,40)f32 #109=(1,64,40,40)f32 #110=(1,128,40,40)f32
nn.ChannelShuffle        channelshuffle_10        1 1 110 111 groups=2 $input=110 #110=(1,128,40,40)f32 #111=(1,128,40,40)f32
torch.tensor_split       Tensor.slice_107         1 2 111 112 113 dim=1 indices=(64) #111=(1,128,40,40)f32 #112=(1,64,40,40)f32 #113=(1,64,40,40)f32
nn.Conv2d                conv2d_41                1 1 113 114 bias=True dilation=(1,1) groups=1 in_channels=64 kernel_size=(1,1) out_channels=64 padding=(0,0) padding_mode=zeros stride=(1,1) @bias=(64)f32 @weight=(64,64,1,1)f32 $input=113 #113=(1,64,40,40)f32 #114=(1,64,40,40)f32
F.silu                   silu_28                  1 1 114 115 $input=114 #114=(1,64,40,40)f32 #115=(1,64,40,40)f32
nn.Conv2d                conv2d_42                1 1 115 116 bias=True dilation=(1,1) groups=64 in_channels=64 kernel_size=(3,3) out_channels=64 padding=(1,1) padding_mode=zeros stride=(1,1) @bias=(64)f32 @weight=(64,1,3,3)f32 $input=115 #115=(1,64,40,40)f32 #116=(1,64,40,40)f32
nn.Conv2d                conv2d_43                1 1 116 117 bias=True dilation=(1,1) groups=1 in_channels=64 kernel_size=(1,1) out_channels=64 padding=(0,0) padding_mode=zeros stride=(1,1) @bias=(64)f32 @weight=(64,64,1,1)f32 $input=116 #116=(1,64,40,40)f32 #117=(1,64,40,40)f32
F.silu                   silu_29                  1 1 117 118 $input=117 #117=(1,64,40,40)f32 #118=(1,64,40,40)f32
torch.cat                torch.cat_12             2 1 112 118 119 dim=1 #112=(1,64,40,40)f32 #118=(1,64,40,40)f32 #119=(1,128,40,40)f32
nn.ChannelShuffle        channelshuffle_11        1 1 119 120 groups=2 $input=119 #119=(1,128,40,40)f32 #120=(1,128,40,40)f32
nn.Conv2d                conv2d_44                1 1 120 121 bias=True dilation=(1,1) groups=128 in_channels=128 kernel_size=(3,3) out_channels=128 padding=(1,1) padding_mode=zeros stride=(2,2) @bias=(128)f32 @weight=(128,1,3,3)f32 $input=120 #120=(1,128,40,40)f32 #121=(1,128,20,20)f32
nn.Conv2d                conv2d_45                1 1 121 122 bias=True dilation=(1,1) groups=1 in_channels=128 kernel_size=(1,1) out_channels=128 padding=(0,0) padding_mode=zeros stride=(1,1) @bias=(128)f32 @weight=(128,128,1,1)f32 $input=121 #121=(1,128,20,20)f32 #122=(1,128,20,20)f32
F.silu                   silu_30                  1 1 122 123 $input=122 #122=(1,128,20,20)f32 #123=(1,128,20,20)f32
nn.Conv2d                conv2d_46                1 1 120 124 bias=True dilation=(1,1) groups=1 in_channels=128 kernel_size=(1,1) out_channels=128 padding=(0,0) padding_mode=zeros stride=(1,1) @bias=(128)f32 @weight=(128,128,1,1)f32 $input=120 #120=(1,128,40,40)f32 #124=(1,128,40,40)f32
F.silu                   silu_31                  1 1 124 125 $input=124 #124=(1,128,40,40)f32 #125=(1,128,40,40)f32
nn.Conv2d                conv2d_47                1 1 125 126 bias=True dilation=(1,1) groups=128 in_channels=128 kernel_size=(3,3) out_channels=128 padding=(1,1) padding_mode=zeros stride=(2,2) @bias=(128)f32 @weight=(128,1,3,3)f32 $input=125 #125=(1,128,40,40)f32 #126=(1,128,20,20)f32
nn.Conv2d                conv2d_48                1 1 126 127 bias=True dilation=(1,1) groups=1 in_channels=128 kernel_size=(1,1) out_channels=128 padding=(0,0) padding_mode=zeros stride=(1,1) @bias=(128)f32 @weight=(128,128,1,1)f32 $input=126 #126=(1,128,20,20)f32 #127=(1,128,20,20)f32
F.silu                   silu_32                  1 1 127 128 $input=127 #127=(1,128,20,20)f32 #128=(1,128,20,20)f32
torch.cat                torch.cat_13             2 1 123 128 129 dim=1 #123=(1,128,20,20)f32 #128=(1,128,20,20)f32 #129=(1,256,20,20)f32
nn.ChannelShuffle        channelshuffle_12        1 1 129 130 groups=2 $input=129 #129=(1,256,20,20)f32 #130=(1,256,20,20)f32
torch.tensor_split       Tensor.slice_109         1 2 130 131 132 dim=1 indices=(128) #130=(1,256,20,20)f32 #131=(1,128,20,20)f32 #132=(1,128,20,20)f32
nn.Conv2d                conv2d_49                1 1 132 133 bias=True dilation=(1,1) groups=1 in_channels=128 kernel_size=(1,1) out_channels=128 padding=(0,0) padding_mode=zeros stride=(1,1) @bias=(128)f32 @weight=(128,128,1,1)f32 $input=132 #132=(1,128,20,20)f32 #133=(1,128,20,20)f32
F.silu                   silu_33                  1 1 133 134 $input=133 #133=(1,128,20,20)f32 #134=(1,128,20,20)f32
nn.Conv2d                conv2d_50                1 1 134 135 bias=True dilation=(1,1) groups=128 in_channels=128 kernel_size=(3,3) out_channels=128 padding=(1,1) padding_mode=zeros stride=(1,1) @bias=(128)f32 @weight=(128,1,3,3)f32 $input=134 #134=(1,128,20,20)f32 #135=(1,128,20,20)f32
nn.Conv2d                conv2d_51                1 1 135 136 bias=True dilation=(1,1) groups=1 in_channels=128 kernel_size=(1,1) out_channels=128 padding=(0,0) padding_mode=zeros stride=(1,1) @bias=(128)f32 @weight=(128,128,1,1)f32 $input=135 #135=(1,128,20,20)f32 #136=(1,128,20,20)f32
F.silu                   silu_34                  1 1 136 137 $input=136 #136=(1,128,20,20)f32 #137=(1,128,20,20)f32
torch.cat                torch.cat_14             2 1 131 137 138 dim=1 #131=(1,128,20,20)f32 #137=(1,128,20,20)f32 #138=(1,256,20,20)f32
nn.ChannelShuffle        channelshuffle_13        1 1 138 139 groups=2 $input=138 #138=(1,256,20,20)f32 #139=(1,256,20,20)f32
torch.tensor_split       Tensor.slice_111         1 2 139 140 141 dim=1 indices=(128) #139=(1,256,20,20)f32 #140=(1,128,20,20)f32 #141=(1,128,20,20)f32
nn.Conv2d                conv2d_52                1 1 141 142 bias=True dilation=(1,1) groups=1 in_channels=128 kernel_size=(1,1) out_channels=128 padding=(0,0) padding_mode=zeros stride=(1,1) @bias=(128)f32 @weight=(128,128,1,1)f32 $input=141 #141=(1,128,20,20)f32 #142=(1,128,20,20)f32
F.silu                   silu_35                  1 1 142 143 $input=142 #142=(1,128,20,20)f32 #143=(1,128,20,20)f32
nn.Conv2d                conv2d_53                1 1 143 144 bias=True dilation=(1,1) groups=128 in_channels=128 kernel_size=(3,3) out_channels=128 padding=(1,1) padding_mode=zeros stride=(1,1) @bias=(128)f32 @weight=(128,1,3,3)f32 $input=143 #143=(1,128,20,20)f32 #144=(1,128,20,20)f32
nn.Conv2d                conv2d_54                1 1 144 145 bias=True dilation=(1,1) groups=1 in_channels=128 kernel_size=(1,1) out_channels=128 padding=(0,0) padding_mode=zeros stride=(1,1) @bias=(128)f32 @weight=(128,128,1,1)f32 $input=144 #144=(1,128,20,20)f32 #145=(1,128,20,20)f32
F.silu                   silu_36                  1 1 145 146 $input=145 #145=(1,128,20,20)f32 #146=(1,128,20,20)f32
torch.cat                torch.cat_15             2 1 140 146 147 dim=1 #140=(1,128,20,20)f32 #146=(1,128,20,20)f32 #147=(1,256,20,20)f32
nn.ChannelShuffle        channelshuffle_14        1 1 147 148 groups=2 $input=147 #147=(1,256,20,20)f32 #148=(1,256,20,20)f32
torch.tensor_split       Tensor.slice_113         1 2 148 149 150 dim=1 indices=(128) #148=(1,256,20,20)f32 #149=(1,128,20,20)f32 #150=(1,128,20,20)f32
nn.Conv2d                conv2d_55                1 1 150 151 bias=True dilation=(1,1) groups=1 in_channels=128 kernel_size=(1,1) out_channels=128 padding=(0,0) padding_mode=zeros stride=(1,1) @bias=(128)f32 @weight=(128,128,1,1)f32 $input=150 #150=(1,128,20,20)f32 #151=(1,128,20,20)f32
F.silu                   silu_37                  1 1 151 152 $input=151 #151=(1,128,20,20)f32 #152=(1,128,20,20)f32
nn.Conv2d                conv2d_56                1 1 152 153 bias=True dilation=(1,1) groups=128 in_channels=128 kernel_size=(3,3) out_channels=128 padding=(1,1) padding_mode=zeros stride=(1,1) @bias=(128)f32 @weight=(128,1,3,3)f32 $input=152 #152=(1,128,20,20)f32 #153=(1,128,20,20)f32
nn.Conv2d                conv2d_57                1 1 153 154 bias=True dilation=(1,1) groups=1 in_channels=128 kernel_size=(1,1) out_channels=128 padding=(0,0) padding_mode=zeros stride=(1,1) @bias=(128)f32 @weight=(128,128,1,1)f32 $input=153 #153=(1,128,20,20)f32 #154=(1,128,20,20)f32
F.silu                   silu_38                  1 1 154 155 $input=154 #154=(1,128,20,20)f32 #155=(1,128,20,20)f32
torch.cat                torch.cat_16             2 1 149 155 156 dim=1 #149=(1,128,20,20)f32 #155=(1,128,20,20)f32 #156=(1,256,20,20)f32
nn.ChannelShuffle        channelshuffle_15        1 1 156 157 groups=2 $input=156 #156=(1,256,20,20)f32 #157=(1,256,20,20)f32
nn.Conv2d                conv2d_58                1 1 157 158 bias=True dilation=(1,1) groups=1 in_channels=256 kernel_size=(1,1) out_channels=64 padding=(0,0) padding_mode=zeros stride=(1,1) @bias=(64)f32 @weight=(64,256,1,1)f32 $input=157 #157=(1,256,20,20)f32 #158=(1,64,20,20)f32
F.silu                   silu_39                  1 1 158 159 $input=158 #158=(1,64,20,20)f32 #159=(1,64,20,20)f32
F.interpolate            F.interpolate_217        1 1 159 160 mode=nearest recompute_scale_factor=False scale_factor=(2.0,2.0) $input=159 #159=(1,64,20,20)f32 #160=(1,64,40,40)f32
torch.cat                torch.cat_17             2 1 160 120 161 dim=1 #160=(1,64,40,40)f32 #120=(1,128,40,40)f32 #161=(1,192,40,40)f32
nn.Conv2d                conv2d_59                1 1 161 162 bias=True dilation=(1,1) groups=1 in_channels=192 kernel_size=(1,1) out_channels=32 padding=(0,0) padding_mode=zeros stride=(1,1) @bias=(32)f32 @weight=(32,192,1,1)f32 $input=161 #161=(1,192,40,40)f32 #162=(1,32,40,40)f32
F.silu                   silu_40                  1 1 162 163 $input=162 #162=(1,32,40,40)f32 #163=(1,32,40,40)f32
nn.Conv2d                conv2d_60                1 1 163 164 bias=True dilation=(1,1) groups=1 in_channels=32 kernel_size=(1,1) out_channels=32 padding=(0,0) padding_mode=zeros stride=(1,1) @bias=(32)f32 @weight=(32,32,1,1)f32 $input=163 #163=(1,32,40,40)f32 #164=(1,32,40,40)f32
F.silu                   silu_41                  1 1 164 165 $input=164 #164=(1,32,40,40)f32 #165=(1,32,40,40)f32
nn.Conv2d                conv2d_61                1 1 165 166 bias=True dilation=(1,1) groups=1 in_channels=32 kernel_size=(3,3) out_channels=32 padding=(1,1) padding_mode=zeros stride=(1,1) @bias=(32)f32 @weight=(32,32,3,3)f32 $input=165 #165=(1,32,40,40)f32 #166=(1,32,40,40)f32
F.silu                   silu_42                  1 1 166 167 $input=166 #166=(1,32,40,40)f32 #167=(1,32,40,40)f32
nn.Conv2d                conv2d_62                1 1 161 168 bias=True dilation=(1,1) groups=1 in_channels=192 kernel_size=(1,1) out_channels=32 padding=(0,0) padding_mode=zeros stride=(1,1) @bias=(32)f32 @weight=(32,192,1,1)f32 $input=161 #161=(1,192,40,40)f32 #168=(1,32,40,40)f32
F.silu                   silu_43                  1 1 168 169 $input=168 #168=(1,32,40,40)f32 #169=(1,32,40,40)f32
torch.cat                torch.cat_18             2 1 167 169 170 dim=1 #167=(1,32,40,40)f32 #169=(1,32,40,40)f32 #170=(1,64,40,40)f32
nn.Conv2d                conv2d_63                1 1 170 171 bias=True dilation=(1,1) groups=1 in_channels=64 kernel_size=(1,1) out_channels=64 padding=(0,0) padding_mode=zeros stride=(1,1) @bias=(64)f32 @weight=(64,64,1,1)f32 $input=170 #170=(1,64,40,40)f32 #171=(1,64,40,40)f32
F.silu                   silu_44                  1 1 171 172 $input=171 #171=(1,64,40,40)f32 #172=(1,64,40,40)f32
nn.Conv2d                conv2d_64                1 1 172 173 bias=True dilation=(1,1) groups=1 in_channels=64 kernel_size=(1,1) out_channels=64 padding=(0,0) padding_mode=zeros stride=(1,1) @bias=(64)f32 @weight=(64,64,1,1)f32 $input=172 #172=(1,64,40,40)f32 #173=(1,64,40,40)f32
F.silu                   silu_45                  1 1 173 174 $input=173 #173=(1,64,40,40)f32 #174=(1,64,40,40)f32
F.interpolate            F.interpolate_218        1 1 174 175 mode=nearest recompute_scale_factor=False scale_factor=(2.0,2.0) $input=174 #174=(1,64,40,40)f32 #175=(1,64,80,80)f32
torch.cat                torch.cat_19             2 1 175 47 176 dim=1 #175=(1,64,80,80)f32 #47=(1,64,80,80)f32 #176=(1,128,80,80)f32
nn.Conv2d                conv2d_65                1 1 176 177 bias=True dilation=(1,1) groups=1 in_channels=128 kernel_size=(1,1) out_channels=32 padding=(0,0) padding_mode=zeros stride=(1,1) @bias=(32)f32 @weight=(32,128,1,1)f32 $input=176 #176=(1,128,80,80)f32 #177=(1,32,80,80)f32
F.silu                   silu_46                  1 1 177 178 $input=177 #177=(1,32,80,80)f32 #178=(1,32,80,80)f32
nn.Conv2d                conv2d_66                1 1 178 179 bias=True dilation=(1,1) groups=1 in_channels=32 kernel_size=(1,1) out_channels=32 padding=(0,0) padding_mode=zeros stride=(1,1) @bias=(32)f32 @weight=(32,32,1,1)f32 $input=178 #178=(1,32,80,80)f32 #179=(1,32,80,80)f32
F.silu                   silu_47                  1 1 179 180 $input=179 #179=(1,32,80,80)f32 #180=(1,32,80,80)f32
nn.Conv2d                conv2d_67                1 1 180 181 bias=True dilation=(1,1) groups=1 in_channels=32 kernel_size=(3,3) out_channels=32 padding=(1,1) padding_mode=zeros stride=(1,1) @bias=(32)f32 @weight=(32,32,3,3)f32 $input=180 #180=(1,32,80,80)f32 #181=(1,32,80,80)f32
F.silu                   silu_48                  1 1 181 182 $input=181 #181=(1,32,80,80)f32 #182=(1,32,80,80)f32
nn.Conv2d                conv2d_68                1 1 176 183 bias=True dilation=(1,1) groups=1 in_channels=128 kernel_size=(1,1) out_channels=32 padding=(0,0) padding_mode=zeros stride=(1,1) @bias=(32)f32 @weight=(32,128,1,1)f32 $input=176 #176=(1,128,80,80)f32 #183=(1,32,80,80)f32
F.silu                   silu_49                  1 1 183 184 $input=183 #183=(1,32,80,80)f32 #184=(1,32,80,80)f32
torch.cat                torch.cat_20             2 1 182 184 185 dim=1 #182=(1,32,80,80)f32 #184=(1,32,80,80)f32 #185=(1,64,80,80)f32
nn.Conv2d                conv2d_69                1 1 185 186 bias=True dilation=(1,1) groups=1 in_channels=64 kernel_size=(1,1) out_channels=64 padding=(0,0) padding_mode=zeros stride=(1,1) @bias=(64)f32 @weight=(64,64,1,1)f32 $input=185 #185=(1,64,80,80)f32 #186=(1,64,80,80)f32
F.silu                   silu_50                  1 1 186 187 $input=186 #186=(1,64,80,80)f32 #187=(1,64,80,80)f32
nn.Conv2d                conv2d_70                1 1 187 188 bias=True dilation=(1,1) groups=1 in_channels=64 kernel_size=(3,3) out_channels=64 padding=(1,1) padding_mode=zeros stride=(2,2) @bias=(64)f32 @weight=(64,64,3,3)f32 $input=187 #187=(1,64,80,80)f32 #188=(1,64,40,40)f32
F.silu                   silu_51                  1 1 188 189 $input=188 #188=(1,64,40,40)f32 #189=(1,64,40,40)f32
torch.cat                torch.cat_21             2 1 189 174 190 dim=1 #189=(1,64,40,40)f32 #174=(1,64,40,40)f32 #190=(1,128,40,40)f32
nn.Conv2d                conv2d_71                1 1 190 191 bias=True dilation=(1,1) groups=1 in_channels=128 kernel_size=(1,1) out_channels=32 padding=(0,0) padding_mode=zeros stride=(1,1) @bias=(32)f32 @weight=(32,128,1,1)f32 $input=190 #190=(1,128,40,40)f32 #191=(1,32,40,40)f32
F.silu                   silu_52                  1 1 191 192 $input=191 #191=(1,32,40,40)f32 #192=(1,32,40,40)f32
nn.Conv2d                conv2d_72                1 1 192 193 bias=True dilation=(1,1) groups=1 in_channels=32 kernel_size=(1,1) out_channels=32 padding=(0,0) padding_mode=zeros stride=(1,1) @bias=(32)f32 @weight=(32,32,1,1)f32 $input=192 #192=(1,32,40,40)f32 #193=(1,32,40,40)f32
F.silu                   silu_53                  1 1 193 194 $input=193 #193=(1,32,40,40)f32 #194=(1,32,40,40)f32
nn.Conv2d                conv2d_73                1 1 194 195 bias=True dilation=(1,1) groups=1 in_channels=32 kernel_size=(3,3) out_channels=32 padding=(1,1) padding_mode=zeros stride=(1,1) @bias=(32)f32 @weight=(32,32,3,3)f32 $input=194 #194=(1,32,40,40)f32 #195=(1,32,40,40)f32
F.silu                   silu_54                  1 1 195 196 $input=195 #195=(1,32,40,40)f32 #196=(1,32,40,40)f32
nn.Conv2d                conv2d_74                1 1 190 197 bias=True dilation=(1,1) groups=1 in_channels=128 kernel_size=(1,1) out_channels=32 padding=(0,0) padding_mode=zeros stride=(1,1) @bias=(32)f32 @weight=(32,128,1,1)f32 $input=190 #190=(1,128,40,40)f32 #197=(1,32,40,40)f32
F.silu                   silu_55                  1 1 197 198 $input=197 #197=(1,32,40,40)f32 #198=(1,32,40,40)f32
torch.cat                torch.cat_22             2 1 196 198 199 dim=1 #196=(1,32,40,40)f32 #198=(1,32,40,40)f32 #199=(1,64,40,40)f32
nn.Conv2d                conv2d_75                1 1 199 200 bias=True dilation=(1,1) groups=1 in_channels=64 kernel_size=(1,1) out_channels=64 padding=(0,0) padding_mode=zeros stride=(1,1) @bias=(64)f32 @weight=(64,64,1,1)f32 $input=199 #199=(1,64,40,40)f32 #200=(1,64,40,40)f32
F.silu                   silu_56                  1 1 200 201 $input=200 #200=(1,64,40,40)f32 #201=(1,64,40,40)f32
nn.Conv2d                conv2d_76                1 1 201 202 bias=True dilation=(1,1) groups=1 in_channels=64 kernel_size=(3,3) out_channels=64 padding=(1,1) padding_mode=zeros stride=(2,2) @bias=(64)f32 @weight=(64,64,3,3)f32 $input=201 #201=(1,64,40,40)f32 #202=(1,64,20,20)f32
F.silu                   silu_57                  1 1 202 203 $input=202 #202=(1,64,20,20)f32 #203=(1,64,20,20)f32
torch.cat                torch.cat_23             2 1 203 159 204 dim=1 #203=(1,64,20,20)f32 #159=(1,64,20,20)f32 #204=(1,128,20,20)f32
nn.Conv2d                conv2d_77                1 1 204 205 bias=True dilation=(1,1) groups=1 in_channels=128 kernel_size=(1,1) out_channels=32 padding=(0,0) padding_mode=zeros stride=(1,1) @bias=(32)f32 @weight=(32,128,1,1)f32 $input=204 #204=(1,128,20,20)f32 #205=(1,32,20,20)f32
F.silu                   silu_58                  1 1 205 206 $input=205 #205=(1,32,20,20)f32 #206=(1,32,20,20)f32
nn.Conv2d                conv2d_78                1 1 206 207 bias=True dilation=(1,1) groups=1 in_channels=32 kernel_size=(1,1) out_channels=32 padding=(0,0) padding_mode=zeros stride=(1,1) @bias=(32)f32 @weight=(32,32,1,1)f32 $input=206 #206=(1,32,20,20)f32 #207=(1,32,20,20)f32
F.silu                   silu_59                  1 1 207 208 $input=207 #207=(1,32,20,20)f32 #208=(1,32,20,20)f32
nn.Conv2d                conv2d_79                1 1 208 209 bias=True dilation=(1,1) groups=1 in_channels=32 kernel_size=(3,3) out_channels=32 padding=(1,1) padding_mode=zeros stride=(1,1) @bias=(32)f32 @weight=(32,32,3,3)f32 $input=208 #208=(1,32,20,20)f32 #209=(1,32,20,20)f32
F.silu                   silu_60                  1 1 209 210 $input=209 #209=(1,32,20,20)f32 #210=(1,32,20,20)f32
nn.Conv2d                conv2d_80                1 1 204 211 bias=True dilation=(1,1) groups=1 in_channels=128 kernel_size=(1,1) out_channels=32 padding=(0,0) padding_mode=zeros stride=(1,1) @bias=(32)f32 @weight=(32,128,1,1)f32 $input=204 #204=(1,128,20,20)f32 #211=(1,32,20,20)f32
F.silu                   silu_61                  1 1 211 212 $input=211 #211=(1,32,20,20)f32 #212=(1,32,20,20)f32
torch.cat                torch.cat_24             2 1 210 212 213 dim=1 #210=(1,32,20,20)f32 #212=(1,32,20,20)f32 #213=(1,64,20,20)f32
nn.Conv2d                conv2d_81                1 1 213 214 bias=True dilation=(1,1) groups=1 in_channels=64 kernel_size=(1,1) out_channels=64 padding=(0,0) padding_mode=zeros stride=(1,1) @bias=(64)f32 @weight=(64,64,1,1)f32 $input=213 #213=(1,64,20,20)f32 #214=(1,64,20,20)f32
F.silu                   silu_62                  1 1 214 215 $input=214 #214=(1,64,20,20)f32 #215=(1,64,20,20)f32
nn.Conv2d                conv2d_82                1 1 187 216 bias=True dilation=(1,1) groups=1 in_channels=64 kernel_size=(1,1) out_channels=45 padding=(0,0) padding_mode=zeros stride=(1,1) @bias=(45)f32 @weight=(45,64,1,1)f32 $input=187 #187=(1,64,80,80)f32 #216=(1,45,80,80)f32
Tensor.reshape           Tensor.reshape_83        1 1 216 217 shape=(1,3,15,80,80) $input=216 #216=(1,45,80,80)f32 #217=(1,3,15,80,80)f32
Tensor.permute           Tensor.permute_48        1 1 217 218 dims=(0,1,3,4,2) $input=217 #217=(1,3,15,80,80)f32 #218=(1,3,80,80,15)f32
torch.tensor_split       Tensor.slice_115         1 3 218 219 220 221 dim=4 indices=(5,13) #218=(1,3,80,80,15)f32 #219=(1,3,80,80,5)f32 #220=(1,3,80,80,8)f32 #221=(1,3,80,80,2)f32
F.sigmoid                F.sigmoid_211            1 1 219 222 $input=219 #219=(1,3,80,80,5)f32 #222=(1,3,80,80,5)f32
F.sigmoid                F.sigmoid_212            1 1 221 223 $input=221 #221=(1,3,80,80,2)f32 #223=(1,3,80,80,2)f32
torch.cat                torch.cat_25             3 1 222 220 223 224 dim=4 #222=(1,3,80,80,5)f32 #220=(1,3,80,80,8)f32 #223=(1,3,80,80,2)f32 #224=(1,3,80,80,15)f32
torch.tensor_split       Tensor.slice_118         1 8 224 225 226 227 228 229 230 231 232 dim=4 indices=(2,4,5,7,9,11,13) #224=(1,3,80,80,15)f32 #225=(1,3,80,80,2)f32 #226=(1,3,80,80,2)f32 #227=(1,3,80,80,1)f32 #228=(1,3,80,80,2)f32 #229=(1,3,80,80,2)f32 #230=(1,3,80,80,2)f32 #231=(1,3,80,80,2)f32 #232=(1,3,80,80,2)f32
pnnx.Attribute           /model.21/Constant_20_output_0 0 1 233 @data=(1,3,80,80,2)f32 #233=(1,3,80,80,2)f32
pnnx.Expression          pnnx_expr_53             2 1 225 233 234 expr=mul(add(sub(mul(@0,2.0),0.5),@1),8.0) #225=(1,3,80,80,2)f32 #233=(1,3,80,80,2)f32 #234=(1,3,80,80,2)f32
pnnx.Attribute           /model.21/Constant_28_output_0 0 1 235 @data=(1,3,80,80,2)f32 #235=(1,3,80,80,2)f32
pnnx.Expression          pnnx_expr_48             2 1 226 235 236 expr=mul(pow(mul(@0,2.0),2.0),@1) #226=(1,3,80,80,2)f32 #235=(1,3,80,80,2)f32 #236=(1,3,80,80,2)f32
pnnx.Attribute           /model.21/Constant_34_output_0 0 1 237 @data=(1,3,80,80,2)f32 #237=(1,3,80,80,2)f32
pnnx.Expression          pnnx_expr_46             3 1 228 235 237 238 expr=add(mul(@0,@1),@2) #228=(1,3,80,80,2)f32 #235=(1,3,80,80,2)f32 #237=(1,3,80,80,2)f32 #238=(1,3,80,80,2)f32
pnnx.Expression          pnnx_expr_44             3 1 229 235 237 239 expr=add(mul(@0,@1),@2) #229=(1,3,80,80,2)f32 #235=(1,3,80,80,2)f32 #237=(1,3,80,80,2)f32 #239=(1,3,80,80,2)f32
pnnx.Expression          pnnx_expr_42             3 1 230 235 237 240 expr=add(mul(@0,@1),@2) #230=(1,3,80,80,2)f32 #235=(1,3,80,80,2)f32 #237=(1,3,80,80,2)f32 #240=(1,3,80,80,2)f32
pnnx.Expression          pnnx_expr_40             3 1 231 235 237 241 expr=add(mul(@0,@1),@2) #231=(1,3,80,80,2)f32 #235=(1,3,80,80,2)f32 #237=(1,3,80,80,2)f32 #241=(1,3,80,80,2)f32
torch.cat                torch.cat_26             8 1 234 236 227 238 239 240 241 232 242 dim=-1 #234=(1,3,80,80,2)f32 #236=(1,3,80,80,2)f32 #227=(1,3,80,80,1)f32 #238=(1,3,80,80,2)f32 #239=(1,3,80,80,2)f32 #240=(1,3,80,80,2)f32 #241=(1,3,80,80,2)f32 #232=(1,3,80,80,2)f32 #242=(1,3,80,80,15)f32
Tensor.reshape           Tensor.reshape_84        1 1 242 243 shape=(1,19200,15) $input=242 #242=(1,3,80,80,15)f32 #243=(1,19200,15)f32
nn.Conv2d                conv2d_83                1 1 201 244 bias=True dilation=(1,1) groups=1 in_channels=64 kernel_size=(1,1) out_channels=45 padding=(0,0) padding_mode=zeros stride=(1,1) @bias=(45)f32 @weight=(45,64,1,1)f32 $input=201 #201=(1,64,40,40)f32 #244=(1,45,40,40)f32
Tensor.reshape           Tensor.reshape_85        1 1 244 245 shape=(1,3,15,40,40) $input=244 #244=(1,45,40,40)f32 #245=(1,3,15,40,40)f32
Tensor.permute           Tensor.permute_49        1 1 245 246 dims=(0,1,3,4,2) $input=245 #245=(1,3,15,40,40)f32 #246=(1,3,40,40,15)f32
torch.tensor_split       Tensor.slice_126         1 3 246 247 248 249 dim=4 indices=(5,13) #246=(1,3,40,40,15)f32 #247=(1,3,40,40,5)f32 #248=(1,3,40,40,8)f32 #249=(1,3,40,40,2)f32
F.sigmoid                F.sigmoid_213            1 1 247 250 $input=247 #247=(1,3,40,40,5)f32 #250=(1,3,40,40,5)f32
F.sigmoid                F.sigmoid_214            1 1 249 251 $input=249 #249=(1,3,40,40,2)f32 #251=(1,3,40,40,2)f32
torch.cat                torch.cat_27             3 1 250 248 251 252 dim=4 #250=(1,3,40,40,5)f32 #248=(1,3,40,40,8)f32 #251=(1,3,40,40,2)f32 #252=(1,3,40,40,15)f32
torch.tensor_split       Tensor.slice_129         1 8 252 253 254 255 256 257 258 259 260 dim=4 indices=(2,4,5,7,9,11,13) #252=(1,3,40,40,15)f32 #253=(1,3,40,40,2)f32 #254=(1,3,40,40,2)f32 #255=(1,3,40,40,1)f32 #256=(1,3,40,40,2)f32 #257=(1,3,40,40,2)f32 #258=(1,3,40,40,2)f32 #259=(1,3,40,40,2)f32 #260=(1,3,40,40,2)f32
pnnx.Attribute           /model.21/Constant_82_output_0 0 1 261 @data=(1,3,40,40,2)f32 #261=(1,3,40,40,2)f32
pnnx.Expression          pnnx_expr_33             2 1 253 261 262 expr=mul(add(sub(mul(@0,2.0),0.5),@1),16.0) #253=(1,3,40,40,2)f32 #261=(1,3,40,40,2)f32 #262=(1,3,40,40,2)f32
pnnx.Attribute           /model.21/Constant_90_output_0 0 1 263 @data=(1,3,40,40,2)f32 #263=(1,3,40,40,2)f32
pnnx.Expression          pnnx_expr_28             2 1 254 263 264 expr=mul(pow(mul(@0,2.0),2.0),@1) #254=(1,3,40,40,2)f32 #263=(1,3,40,40,2)f32 #264=(1,3,40,40,2)f32
pnnx.Attribute           /model.21/Constant_96_output_0 0 1 265 @data=(1,3,40,40,2)f32 #265=(1,3,40,40,2)f32
pnnx.Expression          pnnx_expr_26             3 1 256 263 265 266 expr=add(mul(@0,@1),@2) #256=(1,3,40,40,2)f32 #263=(1,3,40,40,2)f32 #265=(1,3,40,40,2)f32 #266=(1,3,40,40,2)f32
pnnx.Expression          pnnx_expr_24             3 1 257 263 265 267 expr=add(mul(@0,@1),@2) #257=(1,3,40,40,2)f32 #263=(1,3,40,40,2)f32 #265=(1,3,40,40,2)f32 #267=(1,3,40,40,2)f32
pnnx.Expression          pnnx_expr_22             3 1 258 263 265 268 expr=add(mul(@0,@1),@2) #258=(1,3,40,40,2)f32 #263=(1,3,40,40,2)f32 #265=(1,3,40,40,2)f32 #268=(1,3,40,40,2)f32
pnnx.Expression          pnnx_expr_20             3 1 259 263 265 269 expr=add(mul(@0,@1),@2) #259=(1,3,40,40,2)f32 #263=(1,3,40,40,2)f32 #265=(1,3,40,40,2)f32 #269=(1,3,40,40,2)f32
torch.cat                torch.cat_28             8 1 262 264 255 266 267 268 269 260 270 dim=-1 #262=(1,3,40,40,2)f32 #264=(1,3,40,40,2)f32 #255=(1,3,40,40,1)f32 #266=(1,3,40,40,2)f32 #267=(1,3,40,40,2)f32 #268=(1,3,40,40,2)f32 #269=(1,3,40,40,2)f32 #260=(1,3,40,40,2)f32 #270=(1,3,40,40,15)f32
Tensor.reshape           Tensor.reshape_86        1 1 270 271 shape=(1,4800,15) $input=270 #270=(1,3,40,40,15)f32 #271=(1,4800,15)f32
nn.Conv2d                conv2d_84                1 1 215 272 bias=True dilation=(1,1) groups=1 in_channels=64 kernel_size=(1,1) out_channels=45 padding=(0,0) padding_mode=zeros stride=(1,1) @bias=(45)f32 @weight=(45,64,1,1)f32 $input=215 #215=(1,64,20,20)f32 #272=(1,45,20,20)f32
Tensor.reshape           Tensor.reshape_87        1 1 272 273 shape=(1,3,15,20,20) $input=272 #272=(1,45,20,20)f32 #273=(1,3,15,20,20)f32
Tensor.permute           Tensor.permute_50        1 1 273 274 dims=(0,1,3,4,2) $input=273 #273=(1,3,15,20,20)f32 #274=(1,3,20,20,15)f32
torch.tensor_split       Tensor.slice_137         1 3 274 275 276 277 dim=4 indices=(5,13) #274=(1,3,20,20,15)f32 #275=(1,3,20,20,5)f32 #276=(1,3,20,20,8)f32 #277=(1,3,20,20,2)f32
F.sigmoid                F.sigmoid_215            1 1 275 278 $input=275 #275=(1,3,20,20,5)f32 #278=(1,3,20,20,5)f32
F.sigmoid                F.sigmoid_216            1 1 277 279 $input=277 #277=(1,3,20,20,2)f32 #279=(1,3,20,20,2)f32
torch.cat                torch.cat_29             3 1 278 276 279 280 dim=4 #278=(1,3,20,20,5)f32 #276=(1,3,20,20,8)f32 #279=(1,3,20,20,2)f32 #280=(1,3,20,20,15)f32
torch.tensor_split       Tensor.slice_140         1 8 280 281 282 283 284 285 286 287 288 dim=4 indices=(2,4,5,7,9,11,13) #280=(1,3,20,20,15)f32 #281=(1,3,20,20,2)f32 #282=(1,3,20,20,2)f32 #283=(1,3,20,20,1)f32 #284=(1,3,20,20,2)f32 #285=(1,3,20,20,2)f32 #286=(1,3,20,20,2)f32 #287=(1,3,20,20,2)f32 #288=(1,3,20,20,2)f32
pnnx.Attribute           /model.21/Constant_144_output_0 0 1 289 @data=(1,3,20,20,2)f32 #289=(1,3,20,20,2)f32
pnnx.Expression          pnnx_expr_13             2 1 281 289 290 expr=mul(add(sub(mul(@0,2.0),0.5),@1),32.0) #281=(1,3,20,20,2)f32 #289=(1,3,20,20,2)f32 #290=(1,3,20,20,2)f32
pnnx.Attribute           /model.21/Constant_152_output_0 0 1 291 @data=(1,3,20,20,2)f32 #291=(1,3,20,20,2)f32
pnnx.Expression          pnnx_expr_8              2 1 282 291 292 expr=mul(pow(mul(@0,2.0),2.0),@1) #282=(1,3,20,20,2)f32 #291=(1,3,20,20,2)f32 #292=(1,3,20,20,2)f32
pnnx.Attribute           /model.21/Constant_158_output_0 0 1 293 @data=(1,3,20,20,2)f32 #293=(1,3,20,20,2)f32
pnnx.Expression          pnnx_expr_6              3 1 284 291 293 294 expr=add(mul(@0,@1),@2) #284=(1,3,20,20,2)f32 #291=(1,3,20,20,2)f32 #293=(1,3,20,20,2)f32 #294=(1,3,20,20,2)f32
pnnx.Expression          pnnx_expr_4              3 1 285 291 293 295 expr=add(mul(@0,@1),@2) #285=(1,3,20,20,2)f32 #291=(1,3,20,20,2)f32 #293=(1,3,20,20,2)f32 #295=(1,3,20,20,2)f32
pnnx.Expression          pnnx_expr_2              3 1 286 291 293 296 expr=add(mul(@0,@1),@2) #286=(1,3,20,20,2)f32 #291=(1,3,20,20,2)f32 #293=(1,3,20,20,2)f32 #296=(1,3,20,20,2)f32
pnnx.Expression          pnnx_expr_0              3 1 287 291 293 297 expr=add(mul(@0,@1),@2) #287=(1,3,20,20,2)f32 #291=(1,3,20,20,2)f32 #293=(1,3,20,20,2)f32 #297=(1,3,20,20,2)f32
torch.cat                torch.cat_30             8 1 290 292 283 294 295 296 297 288 298 dim=-1 #290=(1,3,20,20,2)f32 #292=(1,3,20,20,2)f32 #283=(1,3,20,20,1)f32 #294=(1,3,20,20,2)f32 #295=(1,3,20,20,2)f32 #296=(1,3,20,20,2)f32 #297=(1,3,20,20,2)f32 #288=(1,3,20,20,2)f32 #298=(1,3,20,20,15)f32
Tensor.reshape           Tensor.reshape_88        1 1 298 299 shape=(1,1200,15) $input=298 #298=(1,3,20,20,15)f32 #299=(1,1200,15)f32
torch.cat                torch.cat_31             3 1 243 271 299 300 dim=1 #243=(1,19200,15)f32 #271=(1,4800,15)f32 #299=(1,1200,15)f32 #300=(1,25200,15)f32
pnnx.Output              out0                     1 0 300 #300=(1,25200,15)f32
